data.pth (torch, 12650 bytes, 6 tensors)

l1.weight f4 [8, 193]
000000 00 7f 96 3d da 57 b3 3e 63 7c 2f be 69 3e 74 be
       0.07348442 0.35027963 -0.17137294 -0.23851933
000010 14 41 46 bd 9d a3 0c 3f 1f c2 81 3d 64 87 10 3f
       -0.048401907 0.54937154 0.06335854 0.5645659
000020 2f 76 67 3e 95 22 6d 3f 63 51 31 bf 31 ea 6c 3e
       0.22603677 0.92630893 -0.6926481 0.23136212
000030 f3 a8 98 3e f2 84 07 3f c1 d2 79 be da 88 8b bc
       0.29816398 0.52937233 -0.24396802 -0.01703303
000040 92 3c 0f 3f 34 f7 e6 3e 97 f5 00 bd 80 78 8c bf
       0.559518 0.45110476 -0.031484213 -1.0974274
000050 f4 06 55 3e 91 84 85 be f6 9d f8 bd 62 c9 19 3f
       0.20803434 -0.26077703 -0.12139504 0.6007291
000060 f4 53 32 3e af 2e dc be 57 ab d3 3e dc 15 5e 3e
       0.17414838 -0.43004367 0.4134166 0.21688026
000070 24 36 1c 3f ac 8b 02 3f 24 21 27 3f 52 3f bb bd
       0.6102011 0.5099437 0.65284944 -0.09142937
000080 bf 82 23 3f 95 b7 f8 be b0 bc 8c 3d 4d e4 49 3f
       0.6387138 -0.48577562 0.06871927 0.78863984
000090 65 d9 1e 3f 8b bc 50 bc 29 af d6 3e 8d 93 d2 3e
       0.6205047 -0.012740265 0.41930512 0.41128197
0000a0 6a e0 a8 be e1 f4 1b bc 0e 7e 22 bf 9c e0 ca 3c
       -0.32983714 -0.009518833 -0.63473594 0.024765305
0000b0 57 a7 16 3e e2 e8 af bc d6 38 4c 3f 79 37 1c 3f
       0.14712273 -0.021473352 0.79774225 0.61022145
0000c0 3c 75 a4 3e 89 7a 7e 3e 82 f6 14 3f 34 0a b0 3f
       0.32120693 0.24851431 0.5818864 1.3753114
0000d0 46 ca 64 3d 74 b0 de 3e df c9 37 3f 23 1a 21 3f
       0.055856965 0.43493998 0.71792406 0.62930506
0000e0 f0 fd 8b bc 2f 5d 64 bd ac d7 1e bd e9 c4 4f 3e
       -0.01708886 -0.05575293 -0.0387799 0.20289959
0000f0 25 11 8a be e8 47 bf bd 85 66 bf 3e 25 9c 8b bd
       -0.26966205 -0.09339887 0.37382904 -0.068168916
000100 e8 22 c5 3e 3e c2 25 bf a7 fc 88 3d dc 2f 93 3e
       0.38503194 -0.64749515 0.066888146 0.2874745
000110 48 35 b5 3d 85 7d 31 3e 8e 16 18 3e 68 a0 b9 3e
       0.08848053 0.17333038 0.14852354 0.36255193
000120 ef ab 2e 3e 76 47 1b 3e c2 80 df 3e 15 c8 8d 3e
       0.17057775 0.15163979 0.43652922 0.27691713
000130 43 29 57 3f 7f d7 0a 3f 01 3c 83 3e 43 16 76 bd
       0.84047335 0.5423507 0.25631717 -0.060079824
000140 ca 40 41 3f 06 e0 d8 3e b1 80 b1 3e 00 62 b8 bd
       0.75489485 0.42358416 0.34668496 -0.09003067
000150 f7 69 94 3e d7 45 a6 bc 94 25 9d 3e f4 e5 9a 3e
       0.28987095 -0.020296974 0.30692732 0.30253565
000160 d7 3c dc 3e 43 d4 02 3d 4c a5 8b 3d 36 a2 77 be
       0.43015167 0.03194071 0.06818637 -0.24182972
000170 81 fb 95 3e 57 41 62 3c bf cf dd 3e bf b1 54 3e
       0.29293445 0.013809524 0.4332256 0.2077093
000180 14 c4 17 bd 65 29 40 3e f5 74 66 bc 3b 46 aa 3e
       -0.03705223 0.18765791 -0.014065971 0.33256707
000190 01 b9 5e bf f1 71 82 3e e7 4e 2f 3f 17 12 69 3e
       -0.87001044 0.25477555 0.6847977 0.22760807
0001a0 03 f4 02 3f 89 3f 89 3e 67 11 d4 3d 2b d5 36 3f
       0.5115358 0.26806286 0.10354882 0.7141902
0001b0 c2 ee cf 3e b2 38 71 3e 7b 77 bd 3e f6 e4 62 3e
       0.40611845 0.23556784 0.3700522 0.22157654
0001c0 ea c0 84 3e 48 17 61 be 1b 21 53 be c7 7d 00 3e
       0.25928432 -0.21981537 -0.20618097 0.1254798
0001d0 ad f8 a2 bd 14 db 00 be 64 f1 49 be cc 46 e1 3b
       -0.079575874 -0.12583572 -0.1972099 0.0068748947
0001e0 ea 91 ee bc 29 c3 00 bf c9 e3 05 3f 0b 47 57 3f
       -0.029122312 -0.5029779 0.523007 0.8409278
0001f0 6c 20 1b 3f 20 e8 f6 be 35 a3 d6 be 93 d6 67 bd
       0.60596347 -0.48223972 -0.41921392 -0.05660112
000200 3a 71 31 3f 23 47 46 be 0d 42 e6 be 7c cb 80 3e
       0.69313395 -0.19363074 -0.44972268 0.25155246
000210 4b 88 9b be 0e e2 82 3d 7f be 3f 3c 99 25 4a bf
       -0.3037742 0.06390773 0.011703133 -0.7896362
000220 04 dd 85 3d d1 9b 5c 3f c0 1b d3 3e aa 59 42 3d
       0.06536296 0.86175257 0.4123211 0.04744879
000230 24 ec 4f 3e fe 77 af 3e 11 80 dc 3e d9 66 dd 3e
       0.20304924 0.34271234 0.43066457 0.4324253
000240 45 ea ab be dc cf ed 3e 11 1e ae be d8 83 f8 36
       -0.3357717 0.46447647 -0.34007314 7.4063246e-06
000250 be a7 10 3d f0 8a 0d be df ee 43 3f 99 2c d2 bd
       0.03531622 -0.13822532 0.76536363 -0.102624126
000260 2d eb eb 3e c9 5f 18 3f 6a 56 bc 3d fe da 49 3f
       0.46077862 0.59521157 0.0919617 0.7884978
000270 77 d6 1c 3e 61 aa e8 be 54 89 24 bf 58 45 10 3e
       0.15316187 -0.4544249 -0.64272046 0.14088953
000280 a8 38 a1 be 89 d0 ca be 80 32 11 bd a4 7c 23 bd
       -0.31488538 -0.39612225 -0.03544855 -0.03991379
000290 c9 95 4e 3d 9c 91 39 3f 4f 8b e5 3e 89 dd 71 3e
       0.050435815 0.7248781 0.44832847 0.23619665
0002a0 8c 6d 1b 3f 4a 76 98 be 06 e1 03 bd 37 5b 53 3e
       0.6071403 -0.29777747 -0.03219702 0.20640264
0002b0 e5 ad e8 3e 7e 5f ce 3e 9a 71 cf bc d0 d5 f8 3e
       0.4544517 0.4030723 -0.025322724 0.48600626
0002c0 f5 2c 52 3e 71 7d 74 be 92 61 e6 3e f8 62 d8 bd
       0.20524962 -0.23875977 0.44996315 -0.10565752
0002d0 f9 f0 39 be 75 26 cc 3e cd ec 12 3e d8 ad 7a 3e
       -0.1815833 0.3987309 0.14348145 0.24480379
0002e0 83 ea 0c 3f 27 e3 5a be ad ab e0 bd 69 b6 f7 be
       0.55045336 -0.21375714 -0.109702446 -0.48381355
0002f0 61 87 1d be 1c 8e e5 3c 8e 93 91 3e 6e 4a 30 be
       -0.15383674 0.028021865 0.28432888 -0.17215893
000300 1a a4 e4 be 6d 22 81 be c9 9e 81 3e 2c 4c fd 3e
       -0.4465645 -0.25221577 0.25316456 0.49472177
000310 94 ad f7 3e 0e 37 2d be 80 41 8a 3e 3f 1f bb be
       0.48374617 -0.16915533 0.27003098 -0.36547276
000320 f2 a5 8e be 60 ea d2 3e 66 38 68 be 19 c1 93 bf
       -0.2786098 0.4119444 -0.22677764 -1.1543304
000330 83 88 a0 be 0f a1 9f 3d 5e 43 88 3e ae 17 28 be
       -0.3135415 0.07794391 0.26613897 -0.16415283
000340 51 65 43 3f 55 07 40 be a6 51 c9 3d 45 5d 98 3e
       0.7632647 -0.18752797 0.09830026 0.2975866
000350 93 37 29 bf 3f 4c b8 3e b8 10 04 be 62 aa e3 3e
       -0.66100425 0.3599567 -0.12897003 0.4446593
000360 2d 58 6a be 86 f9 cf 3e 69 d8 0f 3f da d4 87 bc
       -0.22885199 0.4062006 0.5618959 -0.016580988
000370 0a db da bc 69 bf 14 3f 8e ca 4f 3e 69 60 c2 3e
       -0.026715774 0.5810457 0.20292112 0.3796418
000380 98 00 3d 3e 2f be 59 3e 57 40 a0 3e 92 91 84 3d
       0.18457258 0.21263956 0.31299087 0.06473078
000390 41 bf 66 3e c4 17 8d 3d 65 9b 9c 3e ea 9a f8 3e
       0.22533895 0.068892986 0.30587307 0.4855569
0003a0 16 ae 83 3e 72 27 72 3f 4c 67 22 3f 68 c3 76 3f
       0.25718755 0.9459144 0.6343887 0.96391916
0003b0 e7 03 e4 be be 25 ef be ef ac 65 3f 82 e3 84 3e
       -0.44534227 -0.46708483 0.89717 0.25954825
0003c0 d0 a9 1b 3d c6 b9 d2 3e c5 9c c2 3e f0 37 85 bd
       0.038003743 0.4115736 0.3801023 -0.0650481
0003d0 a4 e8 3b 3f f8 b9 93 bf 30 e1 d1 be da 45 2a 3f
       0.73401856 -1.1541128 -0.40992117 0.66512835
0003e0 48 58 9e be bc 83 3c be eb 3d a1 be 8b 8d 4e ba
       -0.30926728 -0.18409628 -0.31492552 -0.0007879368
0003f0 13 a6 8a bd 2c 37 78 3f 7c 4f 02 3f 5e f8 8e 3f
       -0.067699574 0.96959186 0.50902534 1.1169546

l1.bias f4 [8]
000000 ef 2c 2f 3f 28 5f d3 3f b0 6e 18 3f 5b 38 19 3f
       0.6842794 1.6513414 0.59543896 0.59851617
000010 c4 06 24 3f 8a 73 47 3f 1a d3 e5 3e d8 3a 39 3f
       0.64072824 0.77910674 0.4488762 0.72355413

l2.weight f4 [8, 8]
000000 a5 20 69 3d c6 ca 6b 3f 83 99 45 bf 4c 24 09 c0
       0.056915898 0.9210628 -0.77187365 -2.1428404
000010 23 0c 2d 3f b2 98 e6 3f 04 7a 5e 3e e0 54 50 3f
       0.67596644 1.8015349 0.21726233 0.8137951
000020 97 40 1a 40 66 9c 03 40 66 17 0a 3f 92 d8 99 3e
       2.4101923 2.0564208 0.53941953 0.30048043
000030 65 97 39 bf ac 5e 5d bf e8 2f 1d bf 2d 45 e3 3f
       -0.72496635 -0.8647258 -0.61401224 1.7755486
000040 d5 98 0b 3f 54 39 cb 3d 3b 03 a3 3f 4d 25 da be
       0.5453008 0.09923044 1.2735361 -0.42606583
000050 fa 7a a9 bf 4a eb ee 3f 92 c0 f5 3e b2 ec ef 3f
       -1.3240654 1.8665555 0.47998482 1.8744109
000060 d6 f7 d4 bf 3c ee d7 3f 5d d0 b9 3f 94 d3 3d bf
       -1.6638134 1.6869578 1.4516712 -0.7415097
000070 ce 98 2c 3f 88 cc 34 3e 96 1c d6 be 3b ec 0c bf
       0.6742066 0.17656147 -0.41818684 -0.5504796
000080 83 c0 6d bf 2a 6d 88 3d ae a8 08 40 81 c5 17 3f
       -0.92871875 0.066614464 2.1352954 0.5928574
000090 b4 85 0d 3f 18 3d 4a 3f 88 e9 22 40 6e ff 64 3f
       0.5528214 0.7899947 2.5455036 0.89452255
0000a0 d7 9e 2b be ea f7 82 be 00 dd 40 bc 4a 68 2d 3e
       -0.16759811 -0.25579768 -0.0117714405 0.16934314
0000b0 28 37 0e bd a0 4a e2 bc 58 01 ad bd 40 d4 5f bc
       -0.03472057 -0.027623475 -0.08447522 -0.013661444
0000c0 af 07 0f bf d2 f6 dc 3f ac 41 34 be 04 8a 36 3e
       -0.558711 1.7262824 -0.17603177 0.17826086
0000d0 6b 81 09 40 48 99 9a 3f 37 9e 9f bf 95 9f 69 bf
       2.148524 1.2078028 -1.2470158 -0.9125913
0000e0 89 91 c3 3e 63 9a 4a 3f 2e b3 14 bf ff 64 03 40
       0.38196972 0.79141825 -0.58085907 2.0530393
0000f0 d7 91 2c 3f c3 82 3f bd 8c ad 92 bd 6f 0e 9a bf
       0.67410034 -0.046755563 -0.07162008 -1.2035655

l2.bias f4 [8]
000000 61 c3 06 3f dd 62 49 3f e2 ac cb 3e 1f 31 d8 3d
       0.52641875 0.7866648 0.39780337 0.10556244
000010 a8 6a 27 bf 69 1d a1 be 9e e3 98 3f 1f 38 be 3e
       -0.6539712 -0.3146775 1.1944463 0.37152192

l3.weight f4 [23, 8]
000000 3f 81 0c 3f 82 dc aa 3e ba 4c 19 be c2 6d 00 bf
       0.54884714 0.3337136 -0.14970675 -0.5016748
000010 d5 52 20 c0 0c e0 87 bd f5 27 16 3e a5 31 df be
       -2.5050557 -0.066345304 0.1466368 -0.43592563
000020 32 ff 67 be 69 c8 11 c0 aa b8 d7 be 59 83 1f c0
       -0.22655943 -2.277857 -0.42133075 -2.4923918
000030 1b 00 05 3f d6 7e 4a be 5a e8 0e be f3 12 58 be
       0.51953286 -0.19774947 -0.13955823 -0.21100979
000040 2a 8b 79 3e c2 fd ef be ef c2 08 c0 1f 7e 76 3e
       0.24369493 -0.4687329 -2.1368978 0.24071549
000050 ce 42 22 c0 00 f2 2a 3b 11 26 48 3f f3 05 50 3f
       -2.5353274 0.0026084185 0.78183085 0.8125908
000060 c7 41 46 c0 27 85 ca 3e ce b9 35 be 6d da dc 3e
       -3.0977647 0.39554712 -0.1774666 0.43135396
000070 34 59 81 bf f0 fc 34 be 87 40 3f 3e 5f 81 30 bd
       -1.0105348 -0.17674613 0.18676959 -0.043092128
000080 af 5d 3f 3f 42 a5 14 c0 cb 16 84 3e e6 6d 9b bd
       0.74752325 -2.3225865 0.2579864 -0.07589321
000090 5f 37 da bd f2 ee 56 3e 71 33 d2 bc 12 dc 1c c0
       -0.106550924 0.20989588 -0.025659295 -2.450932
0000a0 80 75 aa bf 52 3f f9 bf b2 cc de 3e 74 0d f1 3e
       -1.3317108 -1.9472449 0.43515545 0.47080576
0000b0 13 62 cd 3e 3a 68 28 3e b3 e1 89 bf 8a 24 dc bf
       0.40113887 0.1644601 -1.0772003 -1.7198651
0000c0 3f fa f3 bf 58 db 8c 3d 99 e6 c5 3d 84 5e b3 3e
       -1.9060744 0.06877774 0.09663124 0.35033047
0000d0 ca 50 b5 3d 34 ca f9 3d 9e 60 e2 bf 7b c1 00 c0
       0.088533 0.1219677 -1.7685735 -2.011809
0000e0 c6 98 cf 3e cc b2 fb be 02 65 d1 be 4e 88 1d 3f
       0.40546244 -0.4915985 -0.40897375 0.6153611
0000f0 22 74 a9 bf f2 5b 73 3e 1f d0 fc 3e a2 a0 22 bf
       -1.3238566 0.23765543 0.49377534 -0.63526356
000100 a8 d9 3e 3d e2 7c d9 bd ef 73 96 3e c5 b2 66 bf
       0.046594292 -0.10619523 0.29385325 -0.9011653
000110 15 10 1c be 7c 7d b2 3d da d3 b5 bf d5 fd 2c c0
       -0.1524051 0.087153405 -1.4205277 -2.7029927
000120 15 31 7f bf bd a1 65 bf 27 4b e2 3e eb 85 f8 bf
       -0.9968427 -0.8969992 0.44197962 -1.9415869
000130 ab fc 06 3f 75 f7 b4 3e 65 99 04 c0 58 b8 dc bf
       0.5272929 0.35345045 -2.0718625 -1.7243757
000140 b2 92 15 c0 e1 31 27 3e ce 0f d1 bf 21 db 02 c0
       -2.3370786 0.16327621 -1.6332948 -2.0446246
000150 2c 56 a4 3e 90 fd 0d be 5e 0b 05 bf ae 3c 19 3f
       0.32096994 -0.13866258 -0.5197047 0.59858215
000160 7a b5 b5 bf 88 c0 e9 be 86 d3 ae bf 33 f5 39 3f
       -1.4196007 -0.45654702 -1.3658302 0.7263977
000170 d5 18 69 3d 0a c2 12 3e ea 17 9c 3c 8a 32 d3 be
       0.056908447 0.14331833 0.019054372 -0.41249496
000180 6c fa 0e bf 4c 1a 02 bf 9c 07 34 3d f7 c4 b7 3e
       -0.55850863 -0.50821376 0.04395257 0.3589246
000190 2f ac c3 bd a7 d6 78 be 55 8b 96 be d2 d2 04 c0
       -0.09554326 -0.24300633 -0.29403177 -2.0753675
0001a0 d3 0d 15 c0 4d 35 39 3f 55 41 e8 be 9b 89 23 c0
       -2.3289688 0.72346956 -0.45362344 -2.5552738
0001b0 58 19 38 c0 9e dc 45 3e d2 a1 d8 3e a4 35 89 3f
       -2.8765469 0.1932244 0.4231096 1.0719495
0001c0 71 c3 1a c0 03 14 42 3f 52 8e 94 3e b8 14 df bf
       -2.4181788 0.75811785 0.29014832 -1.7428198
0001d0 c8 82 ad be 58 2a 8e 3d 1c cf fc bf 25 35 c8 bf
       -0.3388884 0.0694167 -1.9750705 -1.5641218
0001e0 4f df 24 bf 1f 2d e2 3e 18 c9 21 be 35 f6 28 c0
       -0.6440324 0.4417505 -0.15799367 -2.6400273
0001f0 0b 93 0f bf e0 5f 9f bc 3c db 9a 3c 37 5c 5f be
       -0.56083745 -0.019454896 0.018903367 -0.21812521
000200 08 57 48 3f 10 e1 1a be ed e5 9d bd d2 7c 42 bf
       0.782578 -0.15124917 -0.077098705 -0.7597171
000210 a4 fd 1c bf 4c 58 05 3e 32 48 04 3d 7b 1f 32 c0
       -0.61324525 0.13021964 0.032295413 -2.7831714
000220 d3 a3 51 bf 46 9a b7 bf 08 d6 6d bf 48 f7 cc bf
       -0.818906 -1.4343956 -0.9290471 -1.6012964
000230 cc 42 2f bf 52 b8 69 3e 70 49 7a 3f 6f 94 83 3f
       -0.684613 0.22824219 0.97768307 1.0279673
000240 74 5d c5 3e 0b c8 89 bf 82 11 e4 3e 79 41 44 c0
       0.38547862 -1.0764173 0.44544607 -3.0664961
000250 2a fc 34 bd d6 66 38 be 5b 02 26 be ef fc 70 bf
       -0.044185795 -0.18007979 -0.16211836 -0.94135946
000260 c3 25 12 3e c0 89 dd bf 33 ab 4e bf d2 d7 fd 3e
       0.14272217 -1.7307663 -0.8072998 0.4957872
000270 a7 eb 3f be 33 b4 9c be 3f cd a8 3e 2a 3d 63 be
       -0.18742238 -0.3060623 0.3296909 -0.22191301
000280 ac ef 6b c0 2b 78 21 bf 05 4f 26 3f be 79 88 bf
       -3.6865034 -0.63073987 0.64964324 -1.0662153
000290 92 00 5c 3e cb 6a a9 be 63 88 05 bb ef 9c df bd
       0.21484593 -0.3308929 -0.0020375482 -0.109186046
0002a0 14 4f f3 3e c8 dd 37 3f 9b 2a d2 3e f5 48 bb bf
       0.4752127 0.71822786 0.4104813 -1.463164
0002b0 9e 49 ea bf a5 a7 73 be 2a 1c 07 c0 14 f2 f4 bf
       -1.8303716 -0.2379442 -2.111094 -1.9136376
0002c0 0b 22 11 c0 ae d8 14 c0 ac 40 c4 bf b6 04 fb 3e
       -2.2677028 -2.325725 -1.5332236 0.49027032
0002d0 7f 1e b5 3e 94 a3 58 be 12 ec 81 3e 56 b4 30 3e
       0.3537483 -0.2115615 0.2537542 0.17256293

l3.bias f4 [23]
000000 82 1a 0d be 8e 88 26 3e a5 64 d3 3d c3 22 6e be
       -0.13779643 0.16263029 0.10321931 -0.23255448
000010 c5 86 ff bd 15 fd 51 be b1 13 35 bf 3e 16 b5 be
       -0.12476877 -0.205067 -0.7073317 -0.35368532
000020 ad f4 35 bf 28 34 71 be 22 45 d9 3e ae 62 b2 be
       -0.7107647 -0.23555052 0.42435557 -0.34840912
000030 f6 96 12 bf 33 10 33 3f c2 16 81 3e 90 2a 3b 3f
       -0.572616 0.69946593 0.25212675 0.7311182
000040 19 59 ae 3d fc 93 ce 3e 6f 05 91 be ee 98 42 bf
       0.08513088 0.40347278 -0.28324458 -0.760146
000050 1d c4 bb 3e aa 14 63 3e e8 3f b9 3d
       0.3667306 0.22175851 0.09045392
